…
               activation=\"relu\",\n","                  ))\n","model.add(MaxPooling2D())\n","#進到大腦((NLP前要攤開，這是keras規定的，才能用dense\n","model.add(Flatten())\n","model.add(Dense(128,activation=\"relu\"))\n","model.add(Dense(10,activation=\"softmax\"))\n","model.summary()"],"execution_count":0,"outputs":[{"output_type":"stream","text":["Model: \"sequential\"\n","_________________________________________________________________\n","Layer (type)                 Output Shape              Param #   \n","=================================================================\n","conv2d (Conv2D)              (None, 32, 32, 64)        1792      \n","_________________________________________________________________\n","max_pooling2d (MaxPooling2D) (None, 16, 16, 64)        0         \n","_________________________________________________________________\n","conv2d_1 (Conv2D)            (None, 16, 16, 128)       73856     \n","_________________________________________________________________\n","max_pooling2d_1 (MaxPooling2 (None, 8, 8, 128)         0         \n","_________________________________________________________________\n","conv2d_2 (Conv2D)            (None, 8, 8, 256)         295168    \n","_________________________________________________________________\n","max_pooling2d_2 (MaxPooling2 (None, 4, 4, 256)         0         \n","_________________________________________________________________\n","flatten (Flatten)            (None, 4096)              0         \n","_________________________________________________________________\n","dense (Dense)                (None, 128)               524416    \n","_________________________________________________________________\n","dense_1 (Dense)              (None, 10)                1290      \n","=================================================================\n","Total params: 896,522\n","Trainable params: 896,522\n","Non-trainable params: 0\n","_________________________________________________________________\n"],"name":"stdout"}]},{"cell_type":"code","metadata":{"id":"jdJv9fetTxtB","colab_type":"code","colab":{}},"source":["#SparseCategoricalCrossentropy = tensorflow幫你做  one
…
